…
tivation='relu')(x) x = Conv1D(64, 3, padding='same', activation='relu')(x) x = GlobalMaxPooling1D()(x) x = Dense(64, activation='relu')(x) x = Dense(1, activation='linear')(x) model = Model(input, x) model.compile(loss='mae', optimizer=tf.keras.optimizers.Adam(learning_rate=0.001), weighted_metrics=[]) In [21]: Copied! model . summary () model.summary() Model: \"model_1\" _________________________________________________________________ Layer (type) Output Shape Param # ================================================================= input_2 (InputLayer) [(None, 32, 14)] 0 conv1d_3 (Conv1D) (None, 32, 64) 2752 conv1d_4 (Conv1D) (None, 32, 64) 12352 conv1d_5 (Conv1D) (None, 32, 64) 12352 global_max_pooling1d_1 (Glo (None, 64) 0 balMaxPooling1D) dense_2 (Dense) (None, 64) 4160 dense_3 (Dense) (None, 1) 65 ================================================================= Total params: 31,681 Trainable params: 31,681 Non-trainable params: 0 _________________________________________________________________ Before calling fit the iterators are converted to tf.Dataset instances with tf_regression_dataset In [22]: Copied! model . fit ( tf_regression_dataset ( train_iterator ) . batch ( 32 ), validation_
…
tional_size=64, layers_recurrent=[32, 32], hidden_size=(10, 15), dense_layer_size=25, dropout=0.1, ) model.summary() model.compile(loss='mae', optimizer=tf.keras.optimizers.Adam(learning_rate=0.0001), weighted_metrics=[]) model.fit(tf_regression_dataset(train_iterator).batch(32), validation_data=tf_regression_dataset(val_iterator).batch(32), epochs=25, callbacks=[EarlyStopping(patience=5)]) Model: \"sequential\" _________________________________________________________________ Layer (type) Output Shape Param # ================================================================= conv1d_6 (Conv1D) (None, 32, 64) 1856 max_pooling1d (MaxPooling1D (None, 16, 64) 0 ) conv1d_7 (Conv1D) (None, 16, 128) 16512 max_pooling1d_1 (MaxPooling (None, 8, 128) 0 1D) conv1d_8 (Conv1D) (None, 8, 256) 65792 max_pooling1d_2 (MaxPooling (None, 4, 256) 0 1D) flatten (Flatten) (None, 1024) 0 dense_4 (Dense) (None, 150) 153750 dropout (Dropout) (None, 150) 0 reshape (Reshape) (None, 10, 15) 0 lstm (LSTM) (None, 10, 32) 6144 lstm_1 (LSTM) (None, 32) 8320 dropout_1 (Dropout) (None, 32) 0 flatten_1 (Flatten) (None, 32) 0 dense_5 (Dense) (None, 25) 825 dropout_2 (Dropout) (None, 25) 0 dense_6 (Dense) (None, 1) 26 ================================================================= Total params: 253,225 Trainable params: 253,225 Non-trainable params: 0 _________________________________________________________________ Epoch 1/25 497/497 [==============================] - 9s 15ms/step - loss: 87.4043 - val_loss: 74.3738 Epoch 2/25 497/497 [==============================] - 7s 14ms/step - loss: 75.8393 - val_los
…
